…
50000/50000 [==============================] - 3360s - loss: 0.7648 - acc: 0.7326 - val_loss: 0.7373 - val_acc: 0.7468Traceback (most recent call last):

--------------------------------------------------------------------------------
Initial input shape: (None, 3, 32, 32)
--------------------------------------------------------------------------------
Layer (name)                  Output Shape                  Param #             
--------------------------------------------------------------------------------
Convolution2D (Unnamed)       (None, 32, 32, 32)            896                 
Activation (Unnamed)          (None, 32, 32, 32)            0                   
Convolution2D (Unnamed)       (None, 32, 30, 30)            9248                
Activation (Unnamed)          (None, 32, 30, 30)            0                   
MaxPooling2D (Unnamed)        (None, 32, 15, 15)            0                   
Dropout (Unnamed)             (None, 32, 15, 15)            0                   
Convolution2D (Unnamed)       (None, 64, 15, 15)            18496               
Activation (Unnamed)          (None, 64, 15, 15)            0                   
Convolution2D (Unnamed)       (None, 64, 13, 13)            36928               
Activation (Unnamed)          (None, 64, 13, 13)            0                   
MaxPooling2D (Unnamed)        (None, 64, 6, 6)              0                   
Dropout (Unnamed)             (None, 64, 6, 6)              0                   
Flatten (Unnamed)             (None, 2304)                  0                   
Dense (Unnamed)               (None, 512)                   1180160             
Activation (Unnamed)          (None, 512)                   0                   
Dropout (Unnamed)             (None, 512)                   0                   
Dense (Unnamed)               (None, 10)                    5130                
Activation (Unnamed)          (None, 10)                    0                   
--------------------------------------------------------------------------------
Total params: 1250858
--------------------------------------------------------------------------------
  File "/home/ubuntu/cifar10_cnn.py", line 112, in <module>
    f.write(s)
TypeError: expected a string or other character buffer object
Completed cifar10_cnn in  33697.09556218  s
